NeuralNetworks/logs/migrator/version_0/checkpoints/epoch=99-step=25000.ckpt (torch, 21533 bytes, 12 tensors)

model.sequential.0.weight f4 [64, 15]
-1.2249832 -0.09481922 -3.1559463 -2.091459 0.51885974 -0.64534193 -0.25927508 0.053745914
0.36366543 0.5080389 0.068697475 0.56851816 0.7084245 -1.9003872 1.6988777 -0.3123484
-0.44896102 -2.1317213 0.3144599 -0.55512685 -1.0224736 1.9104863 1.1317575 0.46650812
0.11859088 -0.015045401 0.5930009 -2.3126283 -2.2344718 0.77662045 -1.6620526 -2.0863433
-0.057329573 -0.5972916 -1.7386117 -2.303992 0.1329036 -0.41379568 0.54375064 0.52269286
0.8500778 0.34972286 -1.6719809 2.2552462 -0.40393955 0.74855626 -0.32555327 -1.1220521
-0.7527725 -0.41212583 -3.4961724 0.62804186 -1.1583434 1.0628208 1.2161626 1.0681483
1.1303871 -1.0122508 0.42662024 -0.29569575 -2.0317771 0.938384 -4.432224 -1.2981097
0.61275303 -0.71031934 0.3510624 0.42068487 0.12265158 0.26853034 -0.27663702 -0.032565456
0.88918316 -0.4692404 1.1893946 -0.8488508 -0.4887753 -2.6360462 -0.91818887 0.5654665
-1.5969055 2.3753712 1.2518501 -0.7548011 -0.53753024 -0.64264524 -0.42296928 -1.7454084
-0.81032664 0.54528254 0.29919392 -0.4892485 -1.6474708 0.33574936 -1.1971891 -0.7345985
0.631677 0.5931151 -0.17507198 -0.11799906 0.43148798 0.14426272 -1.78123 0.32276493
-0.6402936 1.0604415 1.0746548 -1.6689427 -0.23328546 1.2273076 -1.5480341 0.7575816
1.0014331 1.64144 1.5727109 1.2631235 1.352013 -0.5708885 1.3759536 -0.9973439
-0.450331 -0.24586019 -2.5006678 3.0860872 -0.74970186 -2.2904842 1.5113857 -1.0661284
0.23124363 0.0042691166 0.06326562 0.4435898 -2.3612149 -1.0677624 0.46167982 -0.48716745
1.4605495 -4.0662503 -0.8876909 1.2703629 0.3043196 0.6826183 1.8010496 0.087395474
-0.1864839 -0.12861796 0.3718583 -0.3948676 0.022914594 0.9494809 -0.628264 -1.2456441
-0.3282115 1.0023221 2.102488 1.2398432 -0.6329807 -0.76419556 0.01839142 0.06793097
0.18720926 -0.0065809935 -0.6533952 1.2248923 -0.5153058 0.9120797 0.27796048 -1.5812514
-0.7291552 0.32461023 -1.8632851 0.8474173 1.0654868 0.8196518 0.44641343 1.0185913
0.6456265 -1.1636356 1.6340598 -1.4741802 -0.54477626 0.86159116 -5.2753444 0.14094108
0.5928862 -1.2576351 0.46418706 0.73704064 -0.1585946 0.54343545 0.5051681 0.62961507
0.8632625 -0.14351152 1.2050599 -0.0070564253 0.021970985 -1.9204338 -0.38000956 -0.085588016
-2.2311492 1.206902 0.96370596 0.30808058 0.38044986 1.1414148 0.34883863 -0.4495244
0.88406676 -0.45294672 -0.50084126 1.8459738 -1.639635 -0.7644899 -0.6709285 -1.7373433
0.088216394 0.99142045 -0.009480055 -0.34599987 -0.003692458 0.024830844 -0.10180526 0.6261926
-0.0106043555 0.0066442993 1.389885 -1.7392609 -0.058297962 1.0372547 -1.6535298 0.53015494
-0.06190194 1.1187835 1.0322202 0.961618 0.94040483 -1.3299788 2.429083 -1.427631
-1.6835024 1.0814801 -1.8564327 0.09385428 0.37699655 -2.1109188 0.397641 0.9214888
0.5453636 0.48301724 0.6379194 0.47000456 -0.6455525 1.9828525 -1.6235198 0.6864057
00000000: 40cc 9cbf 9430 c2bd 06fb 49c0 77da 05c0
00000010: fed3 043f 2135 25bf b4bf 84be ad24 5c3d
00000020: 5b32 ba3e d60e 023f 43b1 8c3d 688a 113f
00000030: 4f5b 353f e33f f3bf d374 d93f 21ec 9fbe
00000040: 38de e5be 1f6e 08c0 e300 a13e cb1c 0ebf
00000050: 6ae0 82bf d18a f43f 6edd 903f 27da ee3e
00000060: c6df f23d fc80 76bc e8ce 173f 1a02 14c0
00000070: 9601 0fc0 99d0 463f 24be d4bf a686 05c0
00000080: 6ad2 6abd 1ae8 18bf d48a debf 9b74 13c0
00000090: e217 083e 07dd d3be 3e33 0b3f 33cf 053f
000000a0: b39e 593f e00e b33e 7803 d6bf f455 1040
000000b0: 2ad1 cebe 62a1 3f3f ebae a6be 679f 8fbf
000000c0: b3b5 40bf 2802 d3be 4ac1 5fc0 5ac7 203f
000000d0: 9944 94bf 830a 883f 37ab 9b3f 15b9 883f
000000e0: 86b0 903f 6f91 81bf f86d da3e 6f65 97be
000000f0: a308 02c0 ef39 703f c7d4 8dc0 7528 a6bf
00000100: 62dd 1c3f 7dd7 35bf 73be b33e 0264 d73e
00000110: c030 fb3d cf7c 893e 5ea3 8dbe 5b63 05bd
00000120: 82a1 633f 4740 f0be 153e 983f 494e 59bf
00000130: c240 fabe fbb4 28c0 6d0e 6bbf 6ac2 103f
00000140: 6667 ccbf 1506 1840 a03c a03f a53a 41bf
00000150: 959b 09bf 6684 24bf 6e8f d8be 8b69 dfbf
00000160: 9171 4fbf a397 0b3f f22f 993e c87e fabe
00000170: 53e0 d2bf 57e7 ab3e 7e3d 99bf a60e 3cbf
00000180: 95b5 213f 64d6 173f 1246 33be 7ea9 f1bd
00000190: feeb dc3e 9bb9 133e 58ff e3bf 7241 a53e
000001a0: 48ea 23bf 8cbc 873f 4a8e 893f ea9f d5bf
000001b0: 62e2 6ebe 6a18 9d3f fb25 c6bf def0 413f
000001c0: f62e 803f b51a d23f 974e c93f 08ae a13f
000001d0: c30e ad3f c025 12bf 3f1f b03f ee51 7fbf
000001e0: c991 e6be c6c2 7bbe f10a 20c0 7482 4540
000001f0: 76ec 3fbf 4b97 12c0 1675 c13f e576 88bf
00000200: 21cb 6c3e f2e3 8b3b 6891 813d 341e e33e
00000210: 251e 17c0 70ac 88bf 4c61 ec3e 036e f9be
00000220: 49f3 ba3f b91e 82c0 b63f 63bf 409b a23f
00000230: c7cf 9b3e 13c0 2e3f cb88 e63f 66fc b23d
00000240: a3f5 3ebe 6db4 03be 3664 be3e 162c cabe
00000250: 63b7 bb3c 2e11 733f e9d5 20bf 4471 9fbf
00000260: 560b a8be 174c 803f 2a8f 0640 2fb3 9e3f
00000270: 060b 22bf 52a2 43bf 9aa9 963c 641f 8b3d
00000280: c9b3 3f3e 60a5 d7bb e844 27bf 45c9 9c3f
00000290: 15eb 03bf 0e7e 693f d650 8e3e 7266 cabf
000002a0: eaa9 3abf 5033 a63e 2080 eebf 57f0 583f
000002b0: df61 883f b3d4 513f 4d90 e43e 3361 823f
000002c0: c747 253f 03f2 94bf df28 d13f f0b1 bcbf
000002d0: 7576 0bbf 3d91 5c3f 9fcf a8c0 dc52 103e
000002e0: 64c7 173f 30fa a0bf eda9 ed3e b2ae 3c3f
000002f0: 9f66 22be 961e 0b3f b252 013f 742e 213f
00000300: c5fe 5c3f aff4 12be 673f 9a3f 9639 e7bb
00000310: 7ffc b33c c6d0 f5bf 9d90 c2be c548 afbd
00000320: 26cb 0ec0 c47b 9a3f 6fb5 763f bdbc 9d3e
00000330: 53ca c23e e119 923f fa9a b23e 1028 e6be
00000340: 3352 623f a2e8 e7be 2237 00bf df48 ec3f
00000350: 8fdf d1bf 9cb5 43bf f8c1 2bbf 4461 debf
00000360: ccaa b43d bbcd 7d3f 3c52 1bbc e526 b1be
00000370: 2afd 71bb 0e6a cb3c 477f d0bd 294e 203f
00000380: e4bd 2dbc 6cb8 d93b c0e7 b13f 1aa0 debf
00000390: d8c9 6ebd c3c4 843f dda6 d3bf 3cb8 073f
000003a0: e38c 7dbd 4c34 8f3f cb1f 843f 992c 763f
000003b0: 5fbe 703f bf3c aabf 1976 1b40 9dbc b6bf
000003c0: 027d d7bf f16d 8a3f 969f edbf ac36 c03d
000003d0: b105 c13e 4b19 07c0 9a97 cb3e b1e6 6b3f
000003e0: f39c 0b3f 094e f73e b04e 233f 70a4 f03e
000003f0: ee42 25bf 1cce fd3f 7fcf cfbf 49b8 2f3f

model.sequential.0.bias f4 [64]
0.18174353 0.59521496 -1.4523572 -0.5870778 -0.77753 -0.4176213 -1.565837 -1.2567345
0.345861 0.2779547 -1.7764273 -1.2093478 -0.19188757 -0.78360784 -1.8437852 -1.2390412
-0.8354263 -1.1293331 -2.2551868 -1.8422316 1.1586843 -2.55786 -3.1438093 -0.1261013
0.023486054 -0.41464823 -0.22786593 -1.1958213 -0.47868618 -3.6578557 -4.2770004 -4.296201
0.33159545 -2.9074273 -0.42222643 0.56654835 -4.11437 -0.95139956 -1.0962838 -0.6749288
0.36954612 -3.467378 -3.7530205 -2.8297815 -0.83812296 0.6798695 -1.1710922 -0.9186169
-1.8471808 0.27333233 -1.0413439 -1.3807515 -2.2898595 -1.806419 -0.21909535 -1.9307269
0.18551081 0.099136636 0.16344354 -1.0408163 -3.7723053 0.029504102 -0.3205676 0.28311265
00000000: fa1a 3a3e 0260 183f d7e6 b9bf bb4a 16bf
00000010: 350c 47bf 76d2 d5be 596d c8bf addc a0bf
00000020: b114 b13e 1450 8e3e f861 e3bf e9cb 9abf
00000030: 2d7e 44be 869a 48bf 2701 ecbf e798 9ebf
00000040: 7fde 55bf fd8d 90bf fb54 10c0 3fce ebbf
00000050: c44f 943f fab3 23c0 2c34 49c0 b320 01be
00000060: d365 c03c c64c d4be b055 69be ac10 99bf
00000070: 5b16 f5be 4f1a 6ac0 30dd 88c0 7b7a 89c0
00000080: e1c6 a93e 4a13 3ac0 102e d8be 5009 113f
00000090: eba8 83c0 ec8e 73bf 0753 8cbf 22c8 2cbf
000000a0: 2635 bd3e 85e9 5dc0 7d31 70c0 241b 35c0
000000b0: 3a8f 56bf ed0b 2e3f 59e6 95bf 7a2a 6bbf
000000c0: 6c70 ecbf 37f2 8b3e c24a 85bf 77bc b0bf
000000d0: 0f8d 12c0 bd38 e7bf 885a 60be 0f22 f7bf
000000e0: 8cf6 3d3e 2608 cb3d be5d 273e 7839 85bf
000000f0: 736d 71c0 96b2 f13c 7021 a4be 24f4 903e

model.sequential.3.weight f4 [10, 64]
2.7341533 1.9683195 0.50837404 1.4796708 2.19402 1.035862 0.58660156 2.2249053
1.3855381 0.36038867 0.49109653 1.0536034 0.8669299 1.9425017 1.3631438 0.0806875
1.6738461 1.151863 -0.9814889 -1.5236504 0.30503893 0.27649334 -0.9607116 1.91973
-0.05566513 2.57135 1.5265133 1.094865 1.76278 -1.178215 -1.7910812 -1.7996947
0.91042596 -1.1413319 1.4731253 1.4135778 -2.275725 0.21726799 -1.845165 1.062916
0.749794 -1.3702985 -1.2923113 -1.2117542 0.98898035 2.2754915 0.7337172 0.44030583
-0.66644967 2.7639613 1.7828978 1.1506847 -2.7382946 0.5919148 1.6169659 -1.0809131
1.1065246 1.6491432 1.3188388 0.9929984 -0.05170568 1.0538377 1.9920747 1.2858385
0.38181478 1.640738 -0.11684559 2.851991 1.1092652 0.9365131 0.71550775 1.8555633
1.1970707 0.62139815 0.23536253 0.27565733 1.8498517 1.5065054 1.3178675 1.1671329
3.4471924 1.5662923 -0.48341054 -1.5061487 0.543711 1.7164015 -1.4802759 0.1527096
0.9645046 2.5317671 0.2737504 1.330178 0.33885074 -0.83736676 -2.172895 -2.1861386
2.22972 -1.2688307 2.040742 1.42166 -2.2285416 0.669113 -2.08141 1.16931
0.96418387 -0.7008327 -1.5470752 -1.9570656 1.7190038 3.1385224 1.1271242 -0.08070616
-0.40157533 2.7900023 0.35688555 1.8905957 -2.1230404 1.3716443 0.9791455 -1.049085
1.8545125 0.59496576 1.2632179 0.64995784 0.23960155 0.8731381 0.86557513 0.48787475
-0.8976169 1.1583449 -0.85387313 1.2235867 1.7933636 2.2623706 1.1035464 2.02336
1.7517102 1.923926 -0.3791001 0.48194635 2.2172604 1.9131367 0.5006145 0.3442329
0.99812126 0.94873565 -0.6746309 -2.323832 1.7915868 1.6496223 -1.3746374 2.2332509
1.1047223 2.0544024 1.8317287 0.8716858 1.1711648 -0.5384084 -2.5401711 -2.51896
1.9097205 0.109595165 0.57485855 0.90870297 -1.644062 1.2544259 -2.4865804 0.90701693
0.24916215 -0.85083437 -2.1853583 -1.4998015 0.438203 1.8092079 0.51611686 1.5662259
-0.07124259 1.3689882 0.59473306 1.46259 -3.3874109 0.9042519 0.66346747 -1.3113014
0.9584914 0.65210956 0.21513954 0.09101351 0.40456906 1.621851 3.065742 1.1701472
-0.96472704 -0.47973612 1.1801745 -0.8813946 -0.9484069 -1.0691367 0.8492457 -0.9352521
-2.6114306 -0.93929565 0.7974319 -0.5103536 -1.7743552 -0.61294043 0.6320902 -1.5279807
-0.73411965 -0.34633565 1.6870463 0.77176106 -1.3611691 0.123976305 1.8412832 -1.3853666
-1.6334898 0.40862757 -1.2999624 -0.2608574 -0.85910153 1.298851 3.237975 2.4771297
-0.61115396 0.35760275 -1.5266325 -0.7202167 2.3409445 -3.1451814 0.7033588 1.3928641
-0.8590737 1.4834068 2.6970415 1.2672055 -1.4421276 -1.236472 0.97869503 0.16615869
1.0264112 -1.1700623 -1.6691006 -0.7416029 0.7276201 -2.3494976 -0.96851116 1.8719777
-1.4894122 -1.4188412 0.22000547 -0.53919566 0.52745354 -0.47202113 -0.9689609 -0.56752574
00000000: 5efc 2e40 e5f1 fb3f cd24 023f da65 bd3f
00000010: d36a 0c40 2097 843f 852b 163f d964 0e40
00000020: 5059 b13f dd84 b83e 0171 fb3e 7adc 863f
00000030: 1eef 5d3f e5a3 f83f 7f7b ae3f 7d3f a53d
00000040: 9740 d63f 3f70 933f db42 7bbf fa06 c3bf
00000050: 102e 9c3e 8990 8d3e 32f1 75bf b6b9 f53f
00000060: 1f01 64bd 0091 2440 ca64 c33f 8924 8c3f
00000070: c6a2 e13f c0cf 96bf 2642 e5bf 655c e6bf
00000080: ad11 693f 2a17 92bf 5f8f bc3f 1ef0 b43f
00000090: 7aa5 11c0 807b 5e3e 5e2e ecbf a20d 883f
000000a0: 80f2 3f3f f165 afbf 756a a5bf c31a 9bbf
000000b0: d12d 7d3f a7a1 1140 e4d4 3b3f c46f e13e
000000c0: 729c 2abf bee4 3040 ff35 e43f a349 933f
000000d0: 3840 2fc0 ba87 173f bdf8 ce3f 5c5b 8abf
000000e0: 99a2 8d3f 2017 d33f b6cf a83f 2535 7e3f
000000f0: 56c9 53bd 27e4 863f 4efc fe3f 5b96 a43f
00000100: 3a7d c33e b403 d23f be4c efbd 0587 3640
00000110: 67fc 8d3f 53bf 6f3f 842b 373f 1983 ed3f
00000120: 9d39 993f f313 1f3f e002 713e f522 8d3e
00000130: f1c7 ec3f 2bd5 c03f e2af a83f 9c64 953f
00000140: cd9e 5c40 447c c83f 9681 f7be 7bc9 c0bf
00000150: a530 0b3f 0bb3 db3f ae79 bdbf e85f 1c3e
00000160: c6e9 763f 7908 2240 0329 8c3e 4643 aa3f
00000170: d87d ad3e ab5d 56bf b610 0bc0 b2e9 0bc0
00000180: bcb3 0e40 0b69 a2bf 849b 0240 f4f8 b53f
00000190: 6da0 0ec0 fd4a 2b3f d235 05c0 f3ab 953f
000001a0: c1d4 763f c669 33bf 8f06 c6bf 2081 fabf
000001b0: 5108 dc3f 8ddd 4840 9b45 903f 4549 a5bd
000001c0: 489b cdbe 668f 3240 b4b9 b63e 0aff f13f
000001d0: e5df 07c0 0a92 af3f 48a9 7a3f 6b48 86bf
000001e0: aa60 ed3f ad4f 183f 20b1 a13f a363 263f
000001f0: 1c5a 753e fb85 5f3f 5596 5d3f b8ca f93e
00000200: 39ca 65bf a544 943f 6e97 5abf 7d9e 9c3f
00000210: f08c e53f aeca 1040 0241 8d3f bb7e 0140
00000220: 0a38 e03f 3543 f63f 6919 c2be acc1 f63e
00000230: 98e7 0d40 aae1 f43f 4628 003f 4b3f b03e
00000240: e084 7f3f 57e0 723f 9cb4 2cbf aab9 14c0
00000250: b752 e53f d326 d33f 1ef4 afbf 95ed 0e40
00000260: 8a67 8d3f 547b 0340 1676 ea3f cd26 5f3f
00000270: bae8 953f 22d5 09bf 2a92 22c0 a436 21c0
00000280: b971 f43f 6e73 e03d ee29 133f c2a0 683f
00000290: a070 d2bf 0791 a03f 2224 1fc0 4332 683f
000002a0: 5d24 7f3e 48d0 59bf e9dc 0bc0 7ff9 bfbf
000002b0: 255c e03e 2094 e73f 3c20 043f 177a c83f
000002c0: a3e7 91bd 013b af3f 6d40 183f 2636 bb3f
000002d0: 57cb 58c0 0d7d 673f 01d9 293f b9d8 a7bf
000002e0: b15f 753f a7f0 263f 8a4d 5c3e 4b65 ba3d
000002f0: ad23 cf3e d098 cf3f 1e35 4440 62c7 953f
00000300: 5af8 76bf f99f f5be f50f 973f 14a3 61bf
00000310: cbca 72bf 79d9 88bf 2b68 593f ae6c 6fbf
00000320: ae21 27c0 ae75 70bf 7f24 4c3f 89a6 02bf
00000330: 121e e3bf aae9 1cbf aad0 213f df94 c3bf
00000340: 44ef 3bbf e852 b1be 22f1 d73f 2292 453f
00000350: ca3a aebf 4ae7 fd3d 2baf eb3f b153 b1bf
00000360: 3216 d1bf a237 d13e 2b65 a6bf 1a8f 85be
00000370: 14ee 5bbf c040 a63f fb3a 4f40 4b89 1e40
00000380: 9674 1cbf b517 b73e b268 c3bf 1f60 38bf
00000390: 09d2 1540 a74a 49c0 530f 343f 5f49 b23f
000003a0: 41ec 5bbf 46e0 bd3f 549c 2c40 ca33 a23f
000003b0: a397 b8bf b744 9ebf c28b 7a3f 8125 2a3e
000003c0: 7161 833f 9ac4 95bf 17a5 d5bf b0d9 3dbf
000003d0: 5045 3a3f 2b5e 16c0 59f0 77bf f79c ef3f
000003e0: 0fa5 bebf 979c b5bf 1d49 613e ba08 0abf
000003f0: 3207 073f c1ac f1be d20d 78bf 5e49 11bf

model.sequential.3.bias f4 [10]
-1.4740751 -1.1185503 -2.8379376 -1.301123 -0.1977224 -2.2543695 -2.0357168 -2.466676
-1.3001385 -0.11264266
00000000: 7eae bcbf a82c 8fbf c5a0 35c0 338b a6bf
00000010: be77 4abe 9747 10c0 2f49 02c0 05de 1dc0
00000020: f06a a6bf 32b1 e6bd

model.sequential.6.weight f4 [2, 10]
0.3578293 0.25997728 0.8200017 -0.10682199 -0.25593948 -0.11157405 -0.28948548 0.32872856
-0.1133094 -0.12472798 -0.3077164 -0.54446566 -0.68197405 0.14608736 -0.26389667 0.11015702
0.22660396 -0.06888991 0.11177112 -0.27488956
00000000: 6735 b73e be1b 853e a2eb 513f 7dc5 dabd
00000010: 800a 83be ef80 e4bd 7137 94be 1c4f a83e
00000020: c20e e8bd 6271 ffbd 018d 9dbe 1a62 0bbf
00000030: da95 2ebf ed97 153e 771d 87be 019a e13d
00000040: de0a 683e 2716 8dbd 42e8 e43d 53be 8cbe

model.sequential.6.bias f4 [2]
1.4512149 -0.8974286
00000000: 69c1 b93f e1bd 65bf

square_avg f4 [64, 15]
2.9760622e-06 4.3530767e-06 4.6308774e-06 1.6498163e-05 9.495616e-06 3.3204374e-06 3.1228979e-06 2.7925796e-06
4.1190683e-06 3.948873e-06 4.313874e-06 4.0305695e-06 1.2367143e-06 4.9741943e-06 3.8218172e-06 3.197343e-06
6.3984203e-06 4.882542e-06 6.392241e-06 4.3843384e-06 7.867412e-06 1.2306953e-06 1.9759414e-06 2.6869623e-06
2.7152332e-06 2.8014945e-06 2.797687e-06 7.128925e-07 3.816922e-06 1.7552015e-06 1.6791048e-05 3.6091528e-06
4.4108623e-05 2.827816e-05 8.804285e-06 7.469047e-06 2.3542683e-05 1.5639618e-05 8.9638515e-06 1.00275165e-05
9.21559e-06 9.178246e-06 4.657488e-06 9.353327e-06 5.2801524e-06 4.7383387e-06 1.5430243e-06 7.4044437e-06
7.718907e-06 4.1303333e-06 5.590945e-07 7.409517e-06 3.894412e-06 3.3656613e-06 3.7928926e-06 3.4091051e-06
3.5150017e-06 1.9823192e-06 3.0411795e-06 1.5993735e-06 3.4152774e-06 3.029025e-06 1.2088511e-06 9.795979e-06
6.7291085e-06 9.881508e-06 9.595001e-07 1.4570139e-06 2.0369384e-06 2.0310995e-06 1.924917e-06 2.2152954e-06
9.640657e-07 1.7613639e-06 7.2022755e-07 4.4652543e-06 1.9901422e-06 4.807039e-06 1.3048178e-05 8.690945e-06
1.1350072e-05 2.8443483e-06 3.5702467e-06 3.665884e-06 3.5965838e-06 3.7861e-06 3.6346373e-06 1.8594953e-06
4.449905e-06 2.805283e-06 1.4139155e-07 2.8489103e-08 1.3149425e-07 5.50342e-07 6.9776263e-07 8.812504e-07
1.6216354e-07 4.4234636e-07 1.4219242e-07 1.575464e-07 1.5433025e-07 1.3662897e-07 7.283429e-08 1.8935656e-07
1.2515707e-07 4.737958e-05 2.4693277e-06 8.275663e-05 5.5731587e-05 2.2007202e-05 1.5162449e-05 5.552385e-05
4.3991484e-05 2.1729647e-05 2.4030463e-05 2.3469782e-05 2.1264685e-05 6.4686474e-06 2.8487453e-05 1.7563962e-05
2.8913606e-05 1.0375319e-05 2.198041e-05 2.0696909e-05 1.2030498e-05 6.192851e-06 5.0906615e-06 2.962639e-06
7.2745092e-06 7.2413322e-06 7.0723995e-06 7.644267e-06 1.71382e-06 7.511876e-06 4.36951e-06 1.1820809e-05
2.3005157e-05 5.084632e-06 1.3659955e-05 1.9783038e-05 2.7001679e-05 2.670036e-06 1.4336052e-05 5.157459e-06
5.1163765e-06 4.84837e-06 5.5745704e-06 2.3179575e-06 5.358112e-06 2.227686e-06 1.6625256e-05 2.2623858e-06
4.804353e-05 1.6600867e-05 9.96443e-06 1.0330245e-05 1.9763927e-05 7.3152223e-06 7.5299513e-06 8.537615e-06
7.8950015e-06 7.7886025e-06 4.921755e-06 9.185756e-06 3.944822e-06 2.8881595e-06 2.817434e-06 4.387095e-06
9.169764e-06 1.0193567e-06 5.1101215e-06 4.8656784e-06 7.809277e-06 2.1022747e-06 2.3447042e-06 2.0767452e-06
2.1770393e-06 7.762838e-07 1.6846503e-06 1.0930099e-06 3.3998497e-06 2.0725942e-05 4.1709095e-06 4.2266172e-05
2.6712869e-05 4.8162405e-05 2.7659868e-05 2.9666218e-05 1.8607052e-05 1.9846573e-05 1.8255238e-05 1.8784542e-05
4.2621164e-06 1.3940787e-05 1.255583e-05 5.12464e-07 1.9828155e-07 2.1590586e-06 7.600541e-07 1.3341435e-05
9.014546e-06 7.882974e-06 1.2177048e-05 6.731735e-06 7.2461144e-06 7.2566004e-06 6.5039108e-06 7.567583e-07
8.4100875e-06 5.8724677e-06 2.1498856e-07 5.881788e-07 6.940716e-08 8.9721294e-07 5.9306353e-07 4.961721e-07
1.3761947e-07 5.1344145e-08 5.425898e-07 5.220892e-07 4.173828e-07 6.057991e-07 1.831864e-07 1.1194931e-07
1.2222158e-07 2.0288828e-05 1.8635677e-06 3.92047e-05 3.3178672e-05 8.497625e-06 1.776638e-05 4.7398153e-05
2.7290054e-05 2.1283891e-05 2.361977e-05 2.3632085e-05 2.0756614e-05 7.4731015e-06 3.2365715e-05 1.7506783e-05
1.3744404e-05 4.0371888e-05 0.00011391504 7.72107e-05 8.570124e-06 7.29698e-05 9.3901865e-05 0.00013943634
4.3350876e-05 4.6662655e-05 4.3988413e-05 4.2195057e-05 5.6489093e-06 3.883943e-05 3.7890222e-05 3.9351292e-07
00000000: 5cb8 4736 a510 9236 ef62 9b36 8965 8a37
00000010: 5c4f 1f37 aed4 5e36 fa92 5136 2768 3b36
00000020: 8736 8a36 9080 8436 e5bf 9036 543e 8736
00000030: 2efd a535 01e8 a636 293d 8036 ef91 5636
00000040: 03b2 d636 b7d4 a336 ef7c d636 2e1d 9336
00000050: 47fe 0337 5e2e a535 6a9a 0436 a951 3436
00000060: 5a37 3636 4f01 3c36 e6bf 3b36 995d 3f35
00000070: 1c13 8036 4494 eb35 80da 8c37 c634 7236
00000080: 4601 3938 e336 ed37 1eb6 1337 a09e fa36
00000090: 877d c537 d331 8337 7363 1637 db3b 2837
000000a0: a89c 1a37 44fc 1937 8447 9c36 3cec 1c37
000000b0: 2a2c b136 05fe 9e36 e919 cf35 b073 f836
000000c0: 7480 0137 4b97 8a36 ae14 1635 449f f836
000000d0: bfac 8236 9fdd 6136 6689 7e36 fbc7 6436
000000e0: 45e3 6b36 fc07 0536 1117 4c36 0eaa d635
000000f0: 0532 6536 4146 4b36 cf3f a235 6959 2437
00000100: 9aca e136 c1c8 2537 2cc8 8035 9e8e c335
00000110: 56b2 0836 064e 0836 d22d 0136 7caa 1436
00000120: 0c65 8135 0168 ec35 a955 4135 3ed4 9536
00000130: 628e 0536 274c a136 7fe9 5a37 53cf 1137
00000140: 306c 3e37 88e1 3e36 5f98 6f36 6803 7636
00000150: d75c 7136 b414 7e36 98ea 7336 c693 f935
00000160: 6550 9536 6542 3c36 6ad1 1734 33b8 f432
00000170: dd30 0d34 37bb 1335 e24d 3b35 118f 6c35
00000180: 2d1f 2e34 9f7b ed34 8ead 1834 062a 2934
00000190: fab5 2534 49b4 1234 1369 9c33 ef51 4b34
000001a0: ea62 0634 70b9 4638 bab6 2536 a18d ad38
000001b0: 56c1 6938 1b9c b837 3962 7e37 48e2 6838
000001c0: 7f83 3838 1048 b637 0795 c937 f9e0 c437
000001d0: 9061 b237 420d d936 57f8 ee37 5256 9337
000001e0: 7f8b f237 a811 2e37 9262 b837 469e ad37
000001f0: 98d6 4937 2fcc cf36 73d0 aa36 c0d1 4636
00000200: 8f17 f436 92fa f236 734f ed36 e03f 0037
00000210: 6806 e635 860e fc36 ce9d 9236 fd51 4637
00000220: 33fb c037 a89c aa36 0f2d 6537 c0f3 a537
00000230: aa81 e237 df2e 3336 e084 7037 3c0e ad36
00000240: 57ad ab36 2eaf a236 320d bb36 358e 1b36
00000250: d5c9 b336 5b7f 1536 7776 8b37 7ed3 1736
00000260: 5982 4938 1742 8b37 e72c 2737 1050 2d37
00000270: b6ca a537 4875 f536 caa9 fc36 c73c 0f37
00000280: c674 0437 cbab 0237 8e25 a536 861c 1a37
00000290: c35d 8436 34d2 4136 2613 3d36 dc34 9336
000002a0: d6d7 1937 d4d0 8835 9c77 ab36 dc43 a336
000002b0: 9704 0337 ce14 0d36 b659 1d36 365e 0b36
000002c0: 4019 1236 d161 5035 251c e235 89b3 9235
000002d0: f928 6436 9fdc ad37 d7f3 8b36 f546 3138
000002e0: 7315 e037 fd01 4a38 1d07 e837 b8db f837
000002f0: 5716 9c37 317c a637 d322 9937 7f93 9d37
00000300: 4d03 8f36 39e3 6937 e1a6 5237 4290 0935
00000310: 38e7 5434 58e4 1036 8506 4c35 07d5 5f37
00000320: 2e3d 1737 1e41 0437 064c 4c37 2ae1 e136
00000330: a623 f336 b97d f336 2b3c da36 0924 4b35
00000340: 0d19 0d37 1d0c c536 9bd7 6634 57e3 1d35
00000350: fd0c 9533 01d8 7035 0433 1f35 b030 0535
00000360: 8dc4 1334 7c85 5c33 7da6 1135 b225 0c35
00000370: a814 e034 329e 2235 e5b1 4434 c968 f033
00000380: 033c 0334 ed31 aa37 b31f fa35 ba6f 2438
00000390: 5429 0b38 0591 0e37 0309 9537 61cd 4638
000003a0: f2ec e437 cf8a b237 1223 c637 843d c637
000003b0: 7d1e ae37 74c1 fa36 6cc0 0738 88db 9237
000003c0: c497 6637 fc54 2938 ace5 ee38 2eec a138
000003d0: 67c8 0f37 5d07 9938 2eed c438 a835 1239
000003e0: a6d3 3538 a5b7 4338 3380 3838 99fa 3038
000003f0: c38b bd36 85e7 2238 51ec 1e38 0144 d334

square_avg f4 [64]
6.5045715e-06 4.7410394e-06 1.9254312e-05 7.1383834e-06 4.054773e-06 6.638768e-06 3.2344758e-07 3.124624e-05
1.4253419e-05 1.46466755e-05 1.7600903e-05 4.2503107e-06 2.7414064e-05 5.351057e-06 3.2688817e-07 2.6432499e-05
6.8030575e-05 1.3047385e-06 5.446372e-05 2.6679265e-05 4.9511714e-06 1.257684e-10 1.2966817e-05 4.5897737e-06
3.9732e-06 2.0734942e-05 1.8096933e-05 4.6012563e-09 2.3265338e-06 3.173636e-05 0.00014553322 8.8721805e-05
3.5820945e-06 1.205249e-05 1.4953629e-05 1.7830091e-06 0.00021926129 4.2564203e-05 1.2635259e-05 7.8383067e-07
7.749578e-06 8.035215e-06 9.3818395e-05 1.197655e-05 1.0376065e-06 1.5543159e-05 4.004491e-07 4.163013e-05
1.7762251e-05 1.7387877e-06 1.4091172e-05 8.638502e-08 5.3567408e-05 1.6155262e-05 7.885719e-06 1.1598487e-05
4.8631064e-05 7.675026e-06 8.607897e-06 2.2175411e-06 2.9704304e-05 1.7722215e-05 2.0681084e-05 5.1788206e-06
00000000: d841 da36 3815 9f36 5284 a137 3f86 ef36
00000010: 3c0e 8836 95c2 de36 4ca6 ad34 650e 0338
00000020: f821 6f37 feba 7537 a7a5 9337 e49d 8e36
00000030: 41f7 e537 3b8d b336 2b7f af34 5cbb dd37
00000040: a3ab 8e38 791e af35 f96f 6438 49cd df37
00000050: 3d22 a636 a848 0a2f 0e8c 5937 db01 9a36
00000060: 8751 8536 f3ef ad37 dece 9737 1419 9e31
00000070: 8c21 1c36 a81c 0538 479a 1839 2810 ba38
00000080: ea63 7036 0d35 4a37 59e1 7a37 ba4f ef35
00000090: 81e9 6539 f786 3238 06fc 5337 6f68 5235
000000a0: 2f04 0237 fcce 0637 5ec0 c438 e4ee 4837
000000b0: e343 8b35 ae62 8237 4efd d634 039c 2e38
000000c0: 2500 9537 4a60 e935 1f69 6c37 ab82 b933
000000d0: 91ad 6038 2985 8737 e84c 0437 1f97 4237
000000e0: 35f9 4b38 fcc3 0037 a36a 1037 11d1 1436
000000f0: 822d f937 2baa 9437 4a7c ad37 bbc5 ad36

square_avg f4 [10, 64]
2.4507808e-06 6.62275e-07 1.0020336e-05 6.8824896e-08 1.207707e-06 2.3252356e-07 1.1290247e-09 1.2405904e-07
1.2382132e-07 1.9089318e-06 4.045731e-06 3.7268805e-07 2.5943336e-06 8.60886e-09 1.7207627e-08 1.8060447e-08
2.9210773e-07 6.212997e-10 5.154539e-06 3.388776e-07 5.358081e-08 1.984743e-09 7.2792045e-06 8.512188e-06
7.951907e-07 2.7805224e-06 6.4640936e-08 5.1680797e-09 1.880128e-05 2.997731e-06 4.9515602e-08 7.7413074e-07
4.6673372e-07 3.6761674e-05 9.67681e-08 3.8351175e-08 5.5744096e-07 3.816365e-07 1.964723e-06 2.538214e-07
4.1362514e-07 4.063693e-07 7.0714044e-08 4.019093e-07 3.8538377e-09 1.6873049e-08 5.864619e-07 4.3485925e-06
2.4939343e-06 5.6143e-08 1.419894e-07 3.3975444e-11 2.894351e-07 8.97935e-08 1.4029196e-06 2.2870487e-05
7.509519e-07 2.7239773e-07 3.462061e-08 4.9439638e-08 1.1048795e-06 5.5354185e-08 3.408049e-07 2.4210513e-08
2.2086789e-07 1.0458349e-07 8.148986e-06 2.5071223e-08 5.59917e-10 4.1652005e-08 3.6127258e-07 4.4151952e-06
1.5915989e-08 1.982429e-06 2.9057649e-06 1.0976221e-07 5.1960365e-07 8.867167e-09 1.5057485e-11 2.247517e-06
2.6469327e-06 3.3801595e-09 5.794093e-05 3.257189e-07 2.2102027e-07 7.084476e-09 2.6274793e-07 1.0941271e-06
4.557855e-08 6.0383144e-07 1.6448963e-08 6.9767947e-09 1.0861839e-09 9.58932e-07 2.1224405e-06 3.8205357e-07
9.12878e-07 7.1978114e-08 1.5526246e-05 4.8692442e-08 3.84462e-06 2.2272118e-06 2.1559347e-07 1.6835147e-08
2.0331743e-08 1.1430935e-07 7.377054e-06 8.406044e-07 3.4126824e-08 7.998779e-09 5.7372995e-07 8.361532e-07
3.0764208e-05 2.3629194e-07 7.879704e-06 7.712401e-10 2.6015086e-05 9.811474e-07 4.677145e-07 1.1979617e-09
4.66653e-05 1.5385936e-07 2.0602727e-05 2.3494295e-06 1.279775e-05 2.2556091e-07 1.6826607e-05 1.6941348e-08
6.793276e-07 3.7407067e-06 1.0965477e-06 2.6575635e-09 3.425775e-06 3.2789312e-06 2.0180102e-07 1.3090414e-05
3.677334e-07 6.8495183e-07 5.7504913e-05 1.02339945e-05 5.6670855e-09 2.3204476e-14 1.5887158e-08 1.9830296e-07
3.3150334e-07 1.71657e-08 1.8811936e-05 4.2926513e-06 4.910053e-07 1.1975913e-23 1.4199068e-06 1.1250613e-09
5.5014688e-08 6.6257953e-06 2.2171487e-06 5.875516e-12 3.0579404e-06 1.7474404e-05 2.3876232e-06 3.8080739e-06
1.1986184e-07 4.7538965e-06 3.4765633e-06 9.278727e-08 1.0778119e-05 1.47452e-05 5.0689923e-06 1.0523818e-06
9.5919134e-08 3.2200085e-06 2.0411228e-06 2.663077e-06 2.9414677e-09 2.9110053e-08 5.4157967e-06 5.603859e-05
0.00012771622 6.882191e-07 4.1856987e-07 7.814458e-14 3.272188e-07 3.959449e-09 3.0434833e-06 1.7709647e-06
4.3846517e-06 3.5607215e-07 8.418033e-09 7.1709394e-10 1.3996085e-05 7.2063544e-06 1.0915094e-06 4.5475326e-09
3.4020113e-06 1.5790495e-06 1.9448558e-05 1.2593815e-06 2.7890962e-06 2.1827063e-06 1.13289616e-07 3.0608676e-06
2.3102896e-06 2.275746e-06 3.7433426e-06 5.0920466e-06 4.4463678e-07 1.331311e-09 3.6138857e-08 9.452641e-07
2.4869988e-07 2.7950309e-09 2.5543399e-05 3.1301377e-05 9.060428e-07 8.1299245e-10 9.5008045e-06 1.1161993e-06
5.5706314e-06 8.752417e-06 5.6982446e-07 7.805839e-09 2.8098787e-06 5.0288436e-06 1.1046295e-06 2.3382784e-06
3.405903e-06 1.2154237e-06 2.0827963e-06 9.823825e-07 3.1297059e-06 1.2871317e-06 1.6332218e-05 1.6668258e-06
1.3148097e-05 4.7795365e-06 2.8651561e-06 3.062397e-05 1.9759078e-07 1.5208602e-06 4.759366e-06 1.2430987e-05
1.5289232e-05 4.9890514e-07 2.0457649e-06 3.9855466e-09 4.1959975e-05 9.55804e-07 2.9280052e-06 1.8634478e-06
6.3845837e-06 4.974991e-06 4.1669264e-06 1.0097307e-06 7.2832036e-06 3.899437e-06 2.4779956e-06 5.8214628e-06
00000000: 1878 2436 31c7 3135 041d 2837 e3cc 9333
00000010: 7f18 a235 97ab 7934 062c 9b30 1735 0534
00000020: bff3 0434 331b 0036 91c0 8736 db15 c834
00000030: 501a 2e36 2be6 1332 f9cf 9332 5823 9b32
00000040: fbd2 9c34 14c8 2a30 27f5 ac36 fcee b534
00000050: b920 6633 f863 0831 e43f f436 92cf 0e37
00000060: 1775 5535 0399 3a36 bbd0 8a33 e992 b131
00000070: 71b7 9d37 a02c 4936 fbaa 5433 dccd 4f35
00000080: 6593 fa34 8c30 1a38 d3ce cf33 90b7 2433
00000090: 0da3 1535 b9e3 cc34 afd9 0336 f344 8834
000000a0: 3510 de34 f92a da34 75db 9733 fec5 d734
000000b0: b76a 8431 3af0 9032 5b6d 1d35 20ea 9136
000000c0: 775d 2736 e221 7133 c075 1834 f36c 152e
000000d0: a863 9b34 80d4 c033 f34b bc35 ffd9 bf37
000000e0: 0695 4935 0f3e 9234 c3b1 1433 7557 5433
000000f0: 5f4b 9435 92be 6d33 def7 b634 7bf7 cf32
00000100: b427 6d34 6297 e033 a1b7 0837 345c d732
00000110: a8e8 1930 dde4 3233 edf4 c134 3d26 9436
00000120: a1b7 8832 df09 0536 a900 4336 6ab6 eb33
00000130: e47a 0b35 3656 1832 7172 842d 0cd4 1636
00000140: f5a1 3136 6548 6831 9a05 7338 77de ae34
00000150: 9751 6d34 b66b f331 cd0f 8d34 ecd9 9235
00000160: 25c2 4333 fb16 2235 a74b 8d32 89b8 ef31
00000170: b348 9530 a7b4 8035 406f 0e36 0b1d cd34
00000180: 800c 7535 6392 9a33 5c3e 8237 e821 5133
00000190: 0901 8136 3577 1536 e27d 6734 e19c 9032
000001a0: faa5 ae32 3b7a f533 6988 f736 e5a5 6135
000001b0: d792 1233 016b 0932 6c02 1a35 0374 6035
000001c0: d108 0138 6fb7 7d34 1233 0437 33ff 5330
000001d0: f93a da37 f8af 8335 311a fb34 88a5 a430
000001e0: 7cba 4338 8a34 2534 05d4 ac37 e4aa 1d36
000001f0: ebb5 5637 b631 7234 dd26 8d37 6b86 9132
00000200: 0a5b 3635 da08 7b36 182d 9335 5aa0 3631
00000210: 5ee6 6536 9c0b 5c36 a4ae 5834 e69e 5b37
00000220: e56c c534 88dd 3735 6e31 7138 acb2 2b37
00000230: 36b8 c231 e101 d128 3b78 8832 1aed 5434
00000240: 79f9 b134 c673 9332 53ce 9d37 9809 9036
00000250: a1cd 0335 d9a5 6719 a093 be35 93a0 9a30
00000260: 4a49 6c33 2653 de36 53ca 1436 f1b9 ce2c
00000270: 0437 4d36 ff95 9237 0e3b 2036 368e 7f36
00000280: 5fb3 0034 a983 9f36 e74e 6936 5742 c733
00000290: abd3 3437 2762 7737 5016 aa36 903f 8d35
000002a0: 1afc cd33 5317 5836 39fa 0836 51b7 3236
000002b0: d922 4a31 af0d fa32 57b9 b536 fa0a 6b38
000002c0: 90eb 0539 0ebe 3835 ceb7 e034 49f7 af29
000002d0: 9cac af34 af0b 8831 a53e 4c36 e2b1 ed35
000002e0: df1f 9336 2f2a bf34 e79e 1032 001d 4530
000002f0: bad0 6a37 1dce f136 fa7f 9235 8540 9c31
00000300: 1c4e 6436 baef d335 7625 a337 0508 a935
00000310: 4f2c 3b36 9c7a 1236 a049 f333 4e69 4d36
00000320: 790a 1b36 05b9 1836 2336 7b36 59dc aa36
00000330: 6ab6 ee34 57f9 b630 1837 1b33 0ebe 7d35
00000340: 0d85 8534 b412 4031 0846 d637 9949 0338
00000350: ca36 7335 4279 5f30 a565 1f37 51d0 9535
00000360: 5ceb ba36 58d7 1237 0af6 1835 711a 0632
00000370: 5991 3c36 70bd a836 c842 9435 51eb 1c36
00000380: f890 6436 a421 a335 2bc6 0b36 68da 8335
00000390: f007 5236 82c1 ac35 2c01 8937 b3b7 df35
000003a0: a696 5c37 e85f a036 0247 4036 3d72 0038
000003b0: 5729 5434 5c20 cc35 a5b2 9f36 af8e 5037
000003c0: 6041 8037 80ec 0535 f949 0936 3df1 8831
000003d0: 2efe 2f38 2d49 8035 bf7e 4436 941b fa35
000003e0: 283b d636 d9ee a636 a0d1 8b36 1586 8735
000003f0: 3e62 f436 e9d7 8236 a44b 2636 fc55 c336

square_avg f4 [10]
9.325425e-07 1.7880171e-06 4.4436747e-06 4.3105683e-06 4.1226384e-18 1.93724e-06 1.4573427e-05 1.9393734e-07
3.2081052e-06 1.0013279e-27
00000000: d553 7a35 cdfb ef35 e01a 9536 80a3 9036
00000010: 3819 9822 8801 0236 6480 7437 173d 5034
00000020: d44a 5736 afaa 9e12

square_avg f4 [2, 10]
0.0001584047 7.909411e-05 1.6531445e-05 0.0013418995 1.2316783e-20 0.0015776394 0.0002891248 0.00030853887
0.0008124172 3.075691e-29 0.00015840467 7.909411e-05 1.6531445e-05 0.0013418996 1.23172105e-20 0.0015776395
0.0002891248 0.0003085388 0.00081241725 3.1025732e-29
00000000: 7019 2639 54df a538 02ad 8a37 ade2 af3a
00000010: 4fa8 681e cbc8 ce3a ac95 9739 63c3 a139
00000020: 65f8 543a c0f4 1b10 6e19 2639 54df a538
00000030: 02ad 8a37 aee2 af3a 60aa 681e ccc8 ce3a
00000040: ac95 9739 60c3 a139 66f8 543a b451 1d10

square_avg f4 [2]
5.211223e-05 5.2112227e-05
00000000: 1593 5a38 1493 5a38
